…
    (0): GCNConv(3, 64)
    (1): GCNConv(64, 128)
    (2): GCNConv(128, 128)
    (3): GCNConv(128, 64)
  )
  (batch_norms): ModuleList(
    (0): BatchNorm(64, eps=1e-05, momentum=0.1, affine=True, track_running_stats=True)
    (1-2): 2 x BatchNorm(128, eps=1e-05, momentum=0.1, affine=True, track_running_stats=True)
    (3): BatchNorm(64, eps=1e-05, momentum=0.1, affine=True, track_running_stats=True)
  )
  (pool): ImprovedGlobalPooling(
    (max_pool): AdaptiveMaxPool1d(output_size=1)
    (avg_pool): AdaptiveAvgPool1d(output_size=1)
  )
  (attention): AttentionLayer()
  (classifier): Sequential(
    (fc1): Linear(in_features=1152, out_features=512, bias=False)
    (bn1): BatchNorm1d(512, eps=1e-05, momentum=0.1, affine=True, track_running_stats=True)
    (relu1): ELU(alpha=1.0)
    (drop1): Dropout(p=0.3, inplace=False)
    (fc2): Linear(in_features=512, out_features=256, bias=False)
    (bn2): BatchNorm1d(256, eps=1e-05, momentum=0.1, affine=True, track_running_stats=True)
    (relu2): ELU(alpha=1.0)
    (drop2): Dropout(p=0.3, inplace=False)
    (fc3): Linear(in_features=256, out_features=128, bias=False)
    (bn3): BatchNorm1d(128, eps=1e-05, momentum=0.1, affine=True, track_running_stats=True)
    (relu3): ELU(alpha=1.0)
    (drop3): Dropout(p=0.3, inplace=False)
    (fc_out): Linear(in_features=128, out_features=6, bias=True)
  )
)
2025-05-23 21:08:46,237 - main - INFO - 模型参数总数: 790,726
2025-05-23 21:08:46,237 - main - INFO - 可训练参数: 790,726
2025-05-23 21:08:46,238 - main - INFO - 
开始改进版模型训练...
2025-05-23 21:08:46,238 - main - INFO - ✓ 使用Focal Loss处理类别不平衡问题
2025-05-23 21:08:46,249 - main - INFO - 开始改进版训练，总共 200 个epoch
2025-05-23 21:08:46,249 - main - INFO - 训练技术: Focal Loss + AdamW + 学习率调度 + 早停 + 梯度裁剪
…
    (0): GCNConv(3, 64)
    (1): GCNConv(64, 128)
    (2): GCNConv(128, 128)
    (3): GCNConv(128, 64)
  )
  (batch_norms): ModuleList(
    (0): BatchNorm(64, eps=1e-05, momentum=0.1, affine=True, track_running_stats=True)
    (1-2): 2 x BatchNorm(128, eps=1e-05, momentum=0.1, affine=True, track_running_stats=True)
    (3): BatchNorm(64, eps=1e-05, momentum=0.1, affine=True, track_running_stats=True)
  )
  (pool): ImprovedGlobalPooling(
    (max_pool): AdaptiveMaxPool1d(output_size=1)
    (avg_pool): AdaptiveAvgPool1d(output_size=1)
  )
  (attention): AttentionLayer()
  (classifier): Sequential(
    (fc1): Linear(in_features=1152, out_features=512, bias=False)
    (ln1): LayerNorm((512,), eps=1e-05, elementwise_affine=True)
    (relu1): ELU(alpha=1.0)
    (drop1): Dropout(p=0.5, inplace=False)
    (fc2): Linear(in_features=512, out_features=256, bias=False)
    (ln2): LayerNorm((256,), eps=1e-05, elementwise_affine=True)
    (relu2): ELU(alpha=1.0)
    (drop2): Dropout(p=0.5, inplace=False)
    (fc3): Linear(in_features=256, out_features=128, bias=False)
    (ln3): LayerNorm((128,), eps=1e-05, elementwise_affine=True)
    (relu3): ELU(alpha=1.0)
    (drop3): Dropout(p=0.5, inplace=False)
    (fc_out): Linear(in_features=128, out_features=6, bias=True)
  )
)
2025-05-23 21:18:35,050 - main - INFO - 模型参数总数: 790,726
2025-05-23 21:18:35,050 - main - INFO - 可训练参数: 790,726
2025-05-23 21:18:35,050 - main - INFO - 
开始改进版模型训练...
2025-05-23 21:18:35,050 - main - INFO - ✓ 使用Focal Loss处理类别不平衡问题
2025-05-23 21:18:35,051 - main - INFO - 开始改进版训练，总共 160 个epoch
2025-05-23 21:18:35,051 - main - INFO - 训练技术: Focal Loss + AdamW + 学习率调度 + 早停 + 梯度裁剪
…
